models/classifier.onnx (onnx, 59050 bytes, 6 tensors)

1 f4 [100, 13]
00000000: dc4b cf3d 1a0b 1e3e f0b4 803c 14cc c6bd
00000010: e0dc dbbd 8660 603e 3d51 843e f882 4bbe
00000020: d211 513e 2c5b c7bd 04bf ca3d 02fb 5a3e
00000030: 2c03 48be ec9f 55bd b0c5 6bbd bb05 8cbe
00000040: 98c4 51bd 30a6 3bbd c83f 333d d8e8 86be
00000050: d03d 91bd 7206 ccbd 3c1a b53d 968d 71be
00000060: a039 333e 018b 87be 2109 81be a02b da3d
00000070: 6e1d 1cbe 887e b83d f6d9 5b3e d008 753d
00000080: e423 063e a01d 81bc 3017 f63d 05f0 04be
00000090: bdf4 75be 0ce4 73be 8a2d 43be 7208 253e
000000a0: e9d8 35be d8d5 133e 54b5 15be 2f8c 803e
000000b0: c017 633d 5ee1 413e 0878 48be 98e2 9c3d
000000c0: 12f9 2abe d041 173e a838 d73d 131d 843e
000000d0: 39dd 5fbe ae46 29be 0875 aa3d ae3b b8bd
000000e0: 265c debd aec0 343e b013 183e 788a f93d
000000f0: b714 49be 80dd a33c c07c 5dbe 14da 143e
00000100: 32d6 4abe 2ceb 47bd 4f3b 813e 2a22 5dbe
00000110: 84e0 b83d 7054 2e3d 3ae9 7f3e f233 b9bd
00000120: dea1 5f3e a088 76be 30ca b03c 20a5 babc
00000130: c979 72be 3eb5 3a3e b8b9 583e d0ee e7bd
00000140: 38d1 333e c0a4 58bc 5421 2fbd 6203 7d3e
00000150: a4d1 74bd 2274 7a3e a007 093d f05c 143d
00000160: a560 03be 2832 3f3d 1416 50be d321 803e
00000170: 9505 71be 28f1 273e 8e9c 77be 0076 913a
00000180: 62e2 3a3e a489 a5bd 9ed9 4e3e 0093 2dbb
00000190: d60d 703e 5a45 82be 253a 76be d73b 8c3e
000001a0: ad9b ef3d f58a 2e3e b452 443d 9ab0 7c3c
000001b0: adec 15be 8dea 923e 2ba9 af3c 09c5 b3bd
000001c0: 5739 0dbe 2203 0c3e bf5c 02be fd38 9a3e
000001d0: 8f14 003e 24be debd 9938 cabe 641e d23d
000001e0: d42a 1c3d 0b5f 4bbc 1567 093e a176 bbbd
000001f0: ba3d 25be 5d3c 193c f733 aabe 4e52 013e
00000200: 8846 e43d 44c5 813d 9499 95bd a426 b23d
00000210: ae39 0b3e f238 53be bc39 58be ca47 a1bd
00000220: 9e5f 2ebe 60fb 0e3c c0de aebb 80a2 c73c
00000230: 300f ecbc b804 3e3d c822 70bd ef08 babd
00000240: f9d9 e33d 575b 9e3e 8190 a53e f222 8d3e
00000250: 0de4 9c3e 0f7f 1abe d6f4 0dbe 5ace 583e
00000260: 70f9 b4bd d18b 133e a84b 90bc 4f8f 1e3d
00000270: 53d6 71be fcec 85bd 0f4a aabd 165e 62be
00000280: b426 a13d d0e5 4b3e 46bd 70bc 1441 c4bd
00000290: 977f 3bbe abec e6bb 63ce bf3c c413 393d
000002a0: 62f4 49bd a64a 7e3e 0aa9 4c3e 41d1 8c3e
000002b0: 5ec5 043e d8ad 073e 0a59 473e 4585 0fbe
000002c0: d90b 82be 2c22 9fbd d65b 6dbe 6263 10be
000002d0: 0019 97bb beec 3b3e 249e 193e 8006 ff3b
000002e0: 24a5 df3d 46e1 3b3e a8a6 85bd f894 0e3e
000002f0: d5c9 823e dcbc bdbd 8951 84be 238a 64be
00000300: 788d 86be 8c99 a93d ea03 70be 267c b1bd
00000310: 8abd 82be 3634 52be e79a 873e a14b 70be
00000320: 14c7 68be 9253 083e 54e1 4ebe 6480 933d
00000330: f0ef a1bc 36c4 693e 8a02 fdbd 7b1b 853e
00000340: da1a 553e 3f49 5bbe 7885 22bd d60b 6cbe
00000350: c683 713e 6693 6e3e 146b b43d 1ef4 07be
00000360: ee49 3fbe 48bb 42be da6a 613e c4c9 6cbe
00000370: b401 28be 77fa 803e 8935 85be 0ee9 92bd
00000380: 8a23 1ebe 72c0 23be fef3 5d3e 3e33 693e
00000390: d882 65bd 7c08 7bbd 3c55 f73d 302d c73d
000003a0: 00d1 1dbc f039 57be 68ff 263e c087 a1bb
000003b0: 4fec 8b3e 2c9b 2abe 56f9 5b3e fda3 843e
000003c0: 10bd 97bd 40b7 973c 313f 42be 783e 67bd
000003d0: 5e63 14be 1888 593e d840 ef3d 08c3 413e
000003e0: 1899 c43d 7e4e 50be cfc8 79be d01c 573d
000003f0: 077e 8cbe 8052 8d3c cf66 0abe dfb1 18be
0.10121891 0.15433922 0.015711278 -0.097068936 -0.10735488 0.21911821 0.2584323 -0.1987418
0.20416954 -0.097341865 0.098997146 0.21384814 -0.1953246 -0.052154467 -0.057561576 -0.27348122
-0.051212877 -0.045812786 0.043762 -0.2634952 -0.07091868 -0.09962167 0.088428944 -0.23589167
0.17502451 -0.2647324 -0.25202277 0.10652852 -0.15245602 0.09008509 0.21469864 0.059822857
0.13099629 -0.015761197 0.120161414 -0.12982185 -0.24019141 -0.23817462 -0.1906034 0.16116503
-0.17758526 0.14437044 -0.14619952 0.25106952 0.05544257 0.18933627 -0.19577038 0.07660407
-0.16696575 0.14771199 0.10508853 0.25803432 -0.21861733 -0.16530868 0.08323103 -0.08995758
-0.1085742 0.17651626 0.1485126 0.12184614 -0.19636808 0.02000308 -0.2162962 0.14536315
-0.19808272 -0.04880826 0.2524056 -0.21595064 0.09027198 0.042560995 0.24991313 -0.09043111
0.21839091 -0.24075556 0.021580786 -0.022783816 -0.2367927 0.18233201 0.21164596 -0.11324847
0.1756028 -0.013222873 -0.042756394 0.24708322 -0.05977024 0.24458364 0.033454537 0.036221445
-0.12829836 0.046678692 -0.20320922 0.25025806 -0.23537286 0.16400588 -0.24180815 0.0011097789
0.1825042 -0.080828935 0.20200202 -0.0026485324 0.23442778 -0.25443536 -0.24045618 0.27389404
0.11699615 0.17045195 0.047930434 0.0154229645 -0.14641066 0.28694573 0.02144297 -0.08777816
-0.13791405 0.1367307 -0.12730692 0.30121604 0.12507842 -0.1087611 -0.39496306 0.10259703
0.03812678 -0.012412797 0.13418229 -0.09153486 -0.16136828 0.009352771 -0.3324277 0.12629053
0.11146265 0.063364536 -0.07304683 0.08698776 0.13596222 -0.20627192 -0.21115774 -0.07875021
-0.17028663 0.008726925 -0.0053366125 0.024369478 -0.028815836 0.04639122 -0.05862692 -0.09083735
0.11125559 0.30929062 0.3233681 0.27565724 0.3064274 -0.15087532 -0.13862929 0.21172467
-0.08836639 0.14408804 -0.0176142 0.03871089 -0.23616914 -0.06539342 -0.08314907 -0.22106203
0.0786871 0.19911885 -0.014693564 -0.09582725 -0.1831039 -0.007047256 0.023413843 0.045184866
-0.049305327 0.24833164 0.19986358 0.27503398 0.12965915 0.1324991 0.1946756 -0.14015682
-0.25399664 -0.0777019 -0.23179564 -0.14100412 -0.0046111345 0.18352029 0.15001732 0.0077827573
0.1092017 0.18347654 -0.06525928 0.13924015 0.2554461 -0.09264538 -0.25843456 -0.2231832
-0.26279807 0.0828124 -0.23438993 -0.086662576 -0.25535232 -0.2052773 0.2648537 -0.2346635
-0.22732192 0.1331313 -0.20203143 0.07202223 -0.019767731 0.22828755 -0.12354 0.25997528
0.20811024 -0.2141466 -0.039678067 -0.2305139 0.23585424 0.23298416 0.08809486 -0.13276717
-0.18680546 -0.19016755 0.22013417 -0.23123842 -0.164069 0.2519109 -0.26017407 -0.07173358
-0.15443245 -0.15991381 0.21675107 0.22773454 -0.056032985 -0.06128739 0.12076804 0.09725416
-0.009632349 -0.21018195 0.16308367 -0.0049295127 0.27328727 -0.16660756 0.21481833 0.25906363
-0.07409108 0.018519998 -0.18969418 -0.05645606 -0.1449103 0.21243322 0.1168229 0.18922055
0.09599513 -0.20342442 -0.24393009 0.052517712 -0.274399 0.017251253 -0.13515781 -0.14911602

2 f4 [100]
00000000: b4e3 fd3d 016d 57be ea6a 41be 1069 e23d
00000010: 68e3 35be 005c 83be d3f5 8dbe 92f6 50be
00000020: 3fc4 4ebe c321 bf3e 0e70 0b3e 46ae 893e
00000030: 9e20 44bb 52a2 dbbd 2e21 a5bd 57d0 70be
00000040: 26b4 3cbe 36eb 203e fa21 5ebe 8c92 b53d
00000050: 1e00 603e 9349 26be 05b8 73be 7089 303d
00000060: 1856 6c3c c4be 003e b548 07be 200f 403e
00000070: 6e45 48be 00d4 613c b8e5 a03d f784 913e
00000080: a501 0ebf a0ad 113d 95cc 0fbe 1ccd d33d
00000090: bcad fe3d c239 193e 52c0 89bd 404a 9dbd
000000a0: c759 37be 96c6 a2be 6e97 783e dd1c 6bbe
000000b0: d3d4 883e b296 673e 38af 2dbe f3b7 79be
000000c0: 5e19 bb3e ccf4 c73d 6a2a 423e 18b0 fcbd
000000d0: a243 7b3e 0049 87bb fc54 5fbd 0bb6 02bf
000000e0: 0468 d03d e026 4fbc 603a 7b3d 1b5d 8c3e
000000f0: 90b0 d93c 1350 2fbb b521 71be bc7e e0bd
00000100: b4a4 e93d d28d 1dbe d24b 9ebe a40b 9bbd
00000110: 686e 4e3d d8ce 093e 030d ecbd 28a7 9fbd
00000120: 608c 31bd d655 b5bd 3587 193e 98d8 22bd
00000130: abc1 2bbe 46f6 15be a047 353e 0c14 aa3d
00000140: d01b 9fbc 138e 6ebe fc04 26be 2010 453e
00000150: 48c3 703d ddfa 77be 24a5 503e 1843 50be
00000160: 0ad7 e3bd 40c7 a53d c86b f73d b9c9 223f
00000170: 4a62 7d3e dacd 103e 134d 4bbd 3fc7 c33f
00000180: e69b 253e 9a09 773e 2e9c f9bd 4e3b 783f
0.123969465 -0.21037675 -0.1888844 0.11055195 -0.1776253 -0.25656128 -0.27726611 -0.20406559
-0.2019205 0.37330446 0.13616964 0.26890773 -0.0029926668 -0.107243195 -0.08062969 -0.23516975
-0.18428096 0.15714726 -0.21692649 0.08865842 0.21875045 -0.16239004 -0.23800667 0.04309982
0.014424823 0.12572771 -0.1321133 0.1875577 -0.19557735 0.013783455 0.078563154 0.28421757
-0.5547126 0.035565972 -0.14042886 0.10341856 0.12435481 0.14963439 -0.06726135 -0.07680178
-0.17905341 -0.31792134 0.24276516 -0.22960229 0.26724872 0.2261608 -0.16961372 -0.24386577
0.3654279 0.09763488 0.18961492 -0.12338275 0.24537519 -0.0041285753 -0.054524407 -0.51059026
0.101760894 -0.012643546 0.061334968 0.27414784 0.02657345 -0.0026750609 -0.23548014 -0.10961673
0.11408368 -0.15386131 -0.3091722 -0.0757058 0.05039826 0.13457811 -0.11525919 -0.077955544
-0.043346763 -0.088542625 0.14992984 -0.03975734 -0.16773097 -0.14644727 0.17703104 0.08304605
-0.019422442 -0.23296385 -0.16212839 0.19244432 0.058779985 -0.2421679 0.20375496 -0.20338094
-0.11125 0.080946445 0.120811045 0.63589054 0.24744526 0.14141026 -0.04963405 1.529518
0.16172752 0.24124756 -0.12187992 0.9696549

3 f4 [100, 100]
00000000: 7502 8bbd e308 a63d 9866 0b3c 21d9 e5bd
00000010: cc8c 85bc b1ea 98bd a7af a83d 0034 17bd
00000020: 17fe dabc b648 f63d 32ed 94bd b9a7 0cbd
00000030: 5a0f f33c 0785 a3bd 0013 8b39 ee27 643b
00000040: 1394 963d 7275 afbd 5ff8 c8bc 82f3 2d3c
00000050: 9e8d 2fbe 3959 2bbe 2d15 ae3d 5bfb 60bd
00000060: 97b3 aabd a7a0 05be 355a 9abd 7980 80bd
00000070: 0611 103d 48a5 3fbc 59c9 18bc 5532 a23e
00000080: c2fc fcbe 544c d8bc 0681 473d 1b1f bc3d
00000090: a457 d03c f3c6 21be 81ee 82bd fad2 a0bd
000000a0: d8ed 393a 85be 00bf b6dc 2b3d e522 d3bd
000000b0: 25dc d7bd ee2d dd3e da1f 2f3d 0a3c abbd
000000c0: c0fa 903e 8350 5bbd d4e9 a4bd 67db 853d
000000d0: a9d8 02be c5ad c6bd 2c3b 0cbe 28d5 30be
000000e0: 6ef6 8ebd 381c 05be a09f a7bb 701d 5ebd
000000f0: 79b3 31be 2703 66bd 793b a33d 25a4 00be
00000100: 8359 82bd 45d6 a9bd 1d5d 92be d723 9abd
00000110: daff 513d 0692 31be 647d 4bbb e526 c93d
00000120: 74dd eb3c ccc4 74bd 1a29 cbbd 0d42 f7bd
00000130: c630 91bd 6015 f0bb ba20 4fbd e9bc 3fbe
00000140: 347f 1fbe 681a 3ebc 05b8 aa3d 541e 9b3b
00000150: 2a1e 11bd e07a 283c 90a4 5ebd 5477 82bc
00000160: 1932 b6bb 2b19 a8bd ba85 abbd 6e60 0b3f
00000170: e7a2 a43d 410c 1ebe ecf4 6cbb dadf 4c3f
00000180: 491c 03bd 51ed 123b 0061 27bd 5975 c53f
00000190: 4a7c 70bd 2995 963d e300 31bd 278b 683d
000001a0: d77c c03d 4f93 35bd e0dc 95bd a98c 883d
000001b0: 0f97 c3bc 2751 4b3c 495a c83d dfa6 8c3d
000001c0: c8d9 073d c22e edbc a040 79bd 85d3 483d
000001d0: 73c9 b2bd 8d79 65bd ddef 403d 515e c33d
000001e0: 21b3 eb3d cc27 e73c 1557 f63d aaac 91bc
000001f0: 6993 bbba bb0e a13d b0a1 32bc 3a71 a43d
00000200: 6ee4 3b3d cebb e43c 0734 973c 2197 75be
00000210: 49d4 1d3f 6c98 a63c 6012 243b 70f7 83bd
00000220: e985 c93d 9d00 603c 6af9 fb3c 55a3 b7bb
00000230: 61ae fc3d 10f3 083f 5b2b a6bd 9368 353d
00000240: 9f99 263a b233 01bf 008d 1c3c daab babd
00000250: 2c15 9bbf d4fc cabc 852c 84bd 006c 32bd
00000260: 1fbb 1f3d 03cd 88bd e3f6 643d 415d 28bd
00000270: 6d7c 8dbd e165 ad3d 8725 6cbd 502b 5cbd
00000280: 73ad bf3d a010 003e 400f 2b3c 2a7e c03d
00000290: 035f 29bd 578d c13d daec ee3e f7b9 713c
000002a0: e958 a73d bd9d a03d 83b9 3cbd c340 a63d
000002b0: 18ff a0bd a140 603d 7e18 dc3d f937 eb3d
000002c0: 2189 87bd d0b1 57bd e370 bfbd e198 b13a
000002d0: 78e2 0a3d 407b ec3a da55 3fbd 33dc 89bd
000002e0: 4a94 853b a928 803d 99ac ae3d 0011 33bd
000002f0: 23b5 533d 8e37 4a3d ae7e 473d adfe ae3f
00000300: c972 af3d 9f01 f2bc e217 913d c272 54bf
00000310: 6a11 ca3d 067b e53d 92d3 3b3d 0a06 9abf
00000320: 2d5a b73d 4f67 843d d073 cb3b d61a 913d
00000330: 0cb2 0fbd 7b9a 3abd a709 7fbd dcd9 58bc
00000340: 7bd4 8b3b 4393 74bd 0025 60bd 9b8f 4dbd
00000350: 8c0b ccbd 76d1 143d 229c 7c3d 7348 0f3d
00000360: 6891 2fbc a879 f3bc e16c dc3d 57e0 32bd
00000370: fc07 18bc 5e53 ec3c 6919 e5bb 983c 523d
00000380: f3d7 a8bc 29b0 8a3d f3a7 57bd 036b 583d
00000390: 89d7 983d 7e6f fe3a 8944 bcbb 8808 9dbd
000003a0: 245e 043e 9eb2 9fbd e3eb 5bbd e337 6abd
000003b0: 4e73 013d 0758 df3c e0b5 d9bc 15fd 213c
000003c0: 23ce 033e 2c6c 22be 8ba2 aabd 0d4f 1abd
000003d0: a90b c7bc 0ecc 3b3e acbb 95bc e83d 953c
000003e0: f3f8 6b3f 2f24 c6bd c1c6 943d 67df 1bbd
000003f0: 292c 693d 1d12 55bd 43ad 75bc de72 aa3d
-0.06787578 0.08107164 0.008508347 -0.11223055 -0.016302489 -0.07466639 0.08236628 -0.036914825
-0.026732488 0.12025587 -0.07271804 -0.03433964 0.029670406 -0.07984357 0.00026526302 0.003481384
0.07352462 -0.08567323 -0.024532495 0.010617139 -0.17143866 -0.16733254 0.08500133 -0.05492721
-0.08335035 -0.13049565 -0.07536737 -0.06274504 0.035172485 -0.011697121 -0.009325349 0.31679025
-0.4941159 -0.026403584 0.04870703 0.091856204 0.025432415 -0.1579855 -0.06393147 -0.078527406
0.00070926314 -0.5029071 0.041958533 -0.1030939 -0.10540036 0.43199104 0.042754985 -0.08361061
0.28316307 -0.05354358 -0.08052412 0.06535988 -0.12777962 -0.09701113 -0.13694447 -0.17268813
-0.069805965 -0.12999046 -0.0051154643 -0.054227293 -0.1735362 -0.05615535 0.07970328 -0.12562616
-0.06364729 -0.08292822 -0.28586665 -0.07526367 0.05126939 -0.1734086 -0.003105008 0.09821872
0.02879212 -0.059757993 -0.09919949 -0.12073145 -0.07089381 -0.007326767 -0.05056832 -0.18724407
-0.15575868 -0.011602975 0.0833588 0.00473384 -0.035429157 0.010283202 -0.054356158 -0.01592604
-0.0055601713 -0.082079254 -0.08375116 0.54444015 0.08038884 -0.15434362 -0.0036156727 0.8002907
-0.032009397 0.0022419284 -0.04086399 1.5426437 -0.05871228 0.07352669 -0.043213736 0.05677333
0.09398811 -0.044329938 -0.07317519 0.06667454 -0.023875741 0.012409485 0.097828455 0.06867766
0.033166677 -0.02895296 -0.060852647 0.049029846 -0.0872983 -0.056024123 0.04710375 0.09539474
0.115087755 0.028217219 0.12028328 -0.017782528 -0.00143109 0.07864138 -0.010902807 0.08029409
0.045872144 0.027921584 0.018457426 -0.23983432 0.61652046 0.020336352 0.0025035366 -0.06443679
0.098399945 0.013672021 0.030758578 -0.0056041875 0.12337948 0.53495884 -0.08113738 0.044289183
0.0006355289 -0.50469506 0.009555101 -0.09114809 -1.2115836 -0.024778761 -0.06453804 -0.043560028
0.038996812 -0.06679728 0.055899512 -0.04110456 -0.06908498 0.084666975 -0.057652976 -0.053752244
0.09359255 0.12506342 0.010440648 0.09399064 -0.041350376 0.094507866 0.46665078 0.01475381
0.08171255 0.07842586 -0.046075355 0.08117821 -0.07861155 0.054749135 0.10746859 0.11485285
-0.06617952 -0.05265981 -0.09347703 0.001354959 0.033907384 0.0018042102 -0.046712734 -0.06731453
0.0040765153 0.06257755 0.08529014 -0.043717384 0.051686417 0.049369387 0.048704796 1.3671471
0.085668154 -0.029541789 0.070846334 -0.82987607 0.09866603 0.112051055 0.045856066 -1.2033093
0.089527465 0.06465017 0.0062088743 0.07085197 -0.035081908 -0.04555748 -0.062265065 -0.0132355355
0.004267273 -0.059710752 -0.054722786 -0.05018578 -0.0996314 0.03633257 0.061672337 0.034981202
-0.01071582 -0.029721096 0.107629545 -0.04367098 -0.009279247 0.028848346 -0.0069915545 0.051327318
-0.020610785 0.06771881 -0.052650403 0.05283643 0.07462985 0.0019411889 -0.0057454747 -0.07667643
0.12926537 -0.077977404 -0.053691756 -0.057182204 0.031604104 0.027263654 -0.026575983 0.009887
0.12871604 -0.15861577 -0.08331784 -0.037673045 -0.024297552 0.1833956 -0.018277965 0.018217996
0.9217674 -0.0967487 0.07264472 -0.03805485 0.05692688 -0.052019227 -0.014994922 0.083226904

4 f4 [100]
00000000: c967 6abc c62d ca3d b0af c5bb 41ea 123e
00000010: 7b44 e2bd f459 503d 4cd3 60bd 89f8 91bd
00000020: 80f0 ee3b 2da5 db3d 8ffb fb3d c9dc 3bbd
00000030: e541 89bd cbaf 063e 51cc d93c 6a96 26bc
00000040: a6e2 23bc d0ab 9dbd e82c 923d bed7 a9bb
00000050: a6f1 a33d baed 95bd 0ed6 1e3e 1210 a13c
00000060: 3779 723d ec8f 02be d680 9bbd afea b4bd
00000070: f2ae f43d e8ef b4bd be59 733d e651 22bd
00000080: 2ae6 e0bd ee01 06be d077 c9bd cb1d bcbd
00000090: 546b 32be 2b5b 973b 4298 e93c a972 cf3c
000000a0: 7886 3bbd 5c9f b0bc 1a06 debc 1d18 ae3c
000000b0: 28cd 6ebb d94c 7cbe 8124 89bd bacf ad3c
000000c0: 53a2 11be 85d0 e43c 6b7c dcbc fc17 33bd
000000d0: 8590 1d3c d27e 963d 1877 9c3c 8068 333c
000000e0: 1e3c 4d3d 147f 1cbe 675a 043e edb9 a83d
000000f0: 25d1 5c3d 0f55 0d3e f7c1 e93c 27c7 e73c
00000100: 13b1 15be 0646 08bd 43c5 81bd 1300 253e
00000110: eb5c 993d ba49 083d e3cc 8d3d 9dad 983c
00000120: f93b 8a3c e972 c03d 5245 0e3d 086e 5e3d
00000130: ef89 0ebe e920 dcbd d416 59bd dd73 f4bd
00000140: 95fc 0f3d aec9 123b e35e 0fbd a899 b43c
00000150: b033 113e 2d6e c9bd 8314 873d 5daa 8a3b
00000160: 7bd4 393c 67e4 60bd f2a9 f9bb eac3 6fbd
00000170: e35b 43bc 7315 6fbd 0118 0bbe ce99 7d3d
00000180: 7c55 cebd 2f50 3ebe f3d3 ca3c c6c5 06be
-0.014306971 0.09872012 -0.0060329065 0.14347173 -0.11048218 0.050867036 -0.05488901 -0.071274824
0.0072918534 0.10724864 0.1230384 -0.045864854 -0.067020215 0.13152997 0.026586683 -0.010167697
-0.010002768 -0.07698786 0.071374714 -0.005183189 0.08005075 -0.07320733 0.15511343 0.019660983
0.05919763 -0.12750214 -0.07592933 -0.08833825 0.11947431 -0.08834821 0.059411757 -0.039628886
-0.109814 -0.13086674 -0.098373055 -0.0918537 -0.17423755 0.0046190224 0.028514985 0.025323229
-0.045782536 -0.021560363 -0.027102519 0.021251732 -0.00364382 -0.2463869 -0.06696416 0.021217216
-0.14222078 0.027931461 -0.026914796 -0.043724045 0.009616976 0.07348408 0.019099757 0.010950208
0.05010616 -0.15282851 0.12925111 0.082385875 0.053910393 0.13801979 0.028534872 0.028293205
-0.1461833 -0.033269905 -0.06336453 0.1611331 0.07488426 0.033273436 0.06923845 0.018637473
0.0168743 0.093969174 0.034734078 0.054304153 -0.13919805 -0.107484646 -0.053000286 -0.11936162
0.03515299 0.0022398042 -0.0350026 0.022045925 0.14179873 -0.098354675 0.06595709 0.0042317347
0.011342163 -0.05490532 -0.007619136 -0.058536448 -0.011923763 -0.058370065 -0.13583376 0.061914258
-0.100748986 -0.18585275 0.024759268 -0.13161382

5 f4 [3, 100]
00000000: 8110 07be 4550 683e 0d87 acbe 2dd2 3b3e
00000010: 9ca8 45be f9d6 b73e 716f 48bd 1693 b9bc
00000020: 4c51 343d 7c84 ccbe 2f27 b13e 176c 9f3e
00000030: 46ce e8be 6e7a 8a3e 41a6 953e b153 cbbe
00000040: bacd e43e a87d 1c3d 83b4 ec3e 58b8 96be
00000050: 3645 c43e 93c1 28be 7bc1 7a3e b219 7c3e
00000060: b7eb 2f3e 3130 80bd ae62 9b3e be3f c5be
00000070: 9d4c b03e 99e5 123d a546 ce3e 4c8a a3bc
00000080: 0243 4ebe dd90 dcbd fd26 bd3d c618 dbbe
00000090: 27af a3be 709c f8be 683a 6f3c a6dc 5d3d
000000a0: b97e 203d da2d c03e be2c 69be bf0e 94be
000000b0: d785 d73e f838 c9bd c4e6 903e 5076 99be
000000c0: 4ef4 5fbe a577 8b3e fcd1 c9be c274 d6be
000000d0: ba41 dcbe 31a3 ee3e f9d6 bb3e bc30 bb3e
000000e0: 7aed 09be cfe7 8bbe 8941 023f 84a0 bb3e
000000f0: 0bf9 a0be 9bcf fa3d ec1d 593e 3c7d 653e
00000100: adfa d53c 15cb 633e 67cc c43d aebb c33e
00000110: 75c6 edbe 0753 923e 0dd9 e83e 19fa 31bd
00000120: aa58 f4be fe26 f13e 88ca 633d 003a 65bd
00000130: 4e91 94be 6c52 7fbe 9741 ecba 84dd 84be
00000140: f56b c1be 3938 c33e c676 02be 4aba 22bc
00000150: d7d4 473e 4585 a63e 7e69 8abe 2c76 7fbd
00000160: bd61 7bbe 12bd 45bc a5c7 17be fb7c 5fbe
00000170: e2ad 953d 8e5b af3e 4fbe b7be b7da 513e
00000180: 033f acbe 9da1 e33c 2dbd ce3e 5465 dc3e
00000190: 695a 993d 8c7d 85bd 9807 b6be fe12 4ebd
000001a0: 148b 4e3d eb02 983e 4b68 483e 48d4 5c3e
000001b0: a0dc 7c3e 2e21 b3be ec2c 85be 8a59 16bd
000001c0: ea2d 7fbe d032 6bbe 4e93 f2bd ffd0 20be
000001d0: fd73 60be 3abb 2ebd 69e5 f8bd e877 113e
000001e0: 79ae 68be 0931 7b3e 81b7 3cbe bcbd 95be
000001f0: 1780 18be 318e 493e 9e02 973e 9f51 59be
00000200: 80c8 a6bc d0a7 933e d2e4 11be 759e 8f3e
00000210: 6253 433d c9ef 4a3e 0400 2c3d 130c 31bd
00000220: 4ce5 ca3d 78a0 7dbe 58d4 703e 64d0 4cbe
00000230: 2f71 27be 77a4 2abe f1c6 75be 2b66 2cbd
00000240: adb3 8e3e c1ba b5bd d183 053e 3ff9 1a3e
00000250: 5990 913d a714 43be ec30 aebe 60d3 013e
00000260: 91ed a8be c1be 22be c98f a3be e3f4 9ebe
00000270: 32b8 b9be 6ca9 d63d d009 e7bd cc55 63be
00000280: 6444 39be ceb2 87be c8b7 88be 84d1 91be
00000290: 2e78 ac3e 5637 583a b57e b63e 4597 7cbe
000002a0: ccd6 c2be 331a 1f3e d9f5 56be 1a6b fb3d
000002b0: 2484 a3be 7a30 68be 7311 8c3e 0c03 d9be
000002c0: 2543 443e 9ab7 3c3e 682a 42bd 14f0 113e
000002d0: fd0d 7abe 5a93 833e 85e9 443e a9c3 2a3e
000002e0: ae4a 31be 4c8b 6e3e 5534 afbe 0d88 403e
000002f0: dc77 cebe 24c5 883e f969 9a3e 3c4f 773e
00000300: bd2b 0fbe 035c 983d 2b09 053e daf3 0cbe
00000310: 6560 cabd 1665 1fbe 4c78 69be 3679 d13d
00000320: b34a edbd 384a e1be 1086 383f 7b9a 8fbd
00000330: 9c4f 623e e9d2 3abf c092 a4be de55 23bf
00000340: ca04 aabe 1821 423f 8c56 86be 7e88 01be
00000350: 3558 253f e186 68bd bb13 f33d f64a dd3e
00000360: 55a2 1f3a 0582 3a3e 7b37 ebbe 3db9 0abc
00000370: f127 77bd e404 85be 85d0 b63e fa39 da3d
00000380: 79d2 833e 130a 69be f983 4dbf afbf 183f
00000390: 071c c1be b44e 07bf cd42 80be 627f b1be
000003a0: b663 db3d 1dca 88be 3344 963d e5cb b23e
000003b0: c17a a53c 0fa6 2b3f 9fb7 c8be d4c9 8b3e
000003c0: 6ff0 733e b4e1 2e3e 4465 0c3f 2f14 8e3e
000003d0: 32e4 55bf 4a48 8cbd 9f97 efbe f215 343e
000003e0: cfd5 193e 53fc bbbc 636d 503f ede2 b63d
000003f0: 22dd 2e3f bade 9bbe d8b2 32be 34ea debc
-0.1318989 0.2268687 -0.33696786 0.18341894 -0.193026 0.359062 -0.048934404 -0.022653144
0.044022843 -0.39944828 0.34600207 0.31137154 -0.45469874 0.2704653 0.29228404 -0.3971229
0.44688207 0.038205773 0.4623147 -0.29437518 0.38334054 -0.16480093 0.2448787 0.24619177
0.17179762 -0.06259192 0.30348724 -0.38525194 0.3443345 0.035863493 0.40288273 -0.019963406
-0.20142749 -0.10769818 0.09235952 -0.42792338 -0.31969568 -0.48556852 0.0146013275 0.054165505
0.039183352 0.37534982 -0.22770974 -0.289175 0.420943 -0.09825319 0.2830106 -0.29973078
-0.21870539 0.2723972 -0.39418018 -0.41885954 -0.43018895 0.4660888 0.3668745 0.3656062
-0.13469496 -0.27325293 0.5088125 0.366459 -0.31440005 0.12246629 0.2120282 0.22411054
0.026120508 0.22245438 0.09609299 0.38229126 -0.46440473 0.2857897 0.45478097 -0.043451402
-0.47723895 0.4710006 0.05561307 -0.055963516 -0.2901711 -0.24933785 -0.0018024918 -0.25950253
-0.37777677 0.38128832 -0.12740621 -0.00993211 0.19514786 0.32523552 -0.2703361 -0.062368557
-0.24549003 -0.012069004 -0.14822252 -0.2182502 0.07308556 0.34249538 -0.3588738 0.2049359
-0.33641824 0.027787024 0.40378705 0.43046057 0.074879475 -0.06518087 -0.3555267 -0.05031108
0.050425604 0.29689726 0.19571035 0.21565354 0.24693537 -0.34986252 -0.26010835 -0.036706485
-0.24919859 -0.22968602 -0.118445024 -0.15704726 -0.21919246 -0.042659022 -0.121531315 0.14205897
-0.22722806 0.24530424 -0.18429376 -0.29246318 -0.14892612 0.19683148 0.29494184 -0.21222542
-0.020359278 0.28838968 -0.14247444 0.2805058 0.047686942 0.19818033 0.041992202 -0.043224405
0.09907016 -0.24768245 0.23518503 -0.2000137 -0.1635177 -0.16664301 -0.24001671 -0.042089622
0.27871457 -0.08873511 0.13038565 0.15134142 0.0710761 -0.19050847 -0.340217 0.1267829
-0.3299375 -0.1589308 -0.31945637 -0.3104621 -0.36273342 0.104815334 -0.112811685 -0.22200698
-0.18092495 -0.26503605 -0.26702714 -0.2848016 0.3368544 0.0008247992 0.35643545 -0.2466708
-0.38054502 0.15537338 -0.20992221 0.122762874 -0.31936753 -0.22674742 0.27357063 -0.42385137
0.19166239 0.18429413 -0.047403723 0.14251739 -0.24419399 0.25698358 0.19229706 0.16676201
-0.17313644 0.23295325 -0.34219614 0.18801899 -0.4032582 0.26712906 0.30158976 0.2415132
-0.13981529 0.07439425 0.12991779 -0.13764897 -0.09881667 -0.15565905 -0.22799796 0.10228197
-0.11586513 -0.44001937 0.72079563 -0.07011887 0.22100681 -0.72978073 -0.3214321 -0.638029
-0.3320678 0.7583175 -0.26237905 -0.12649724 0.6458772 -0.056769256 0.11868998 0.43221253
0.0006089558 0.18213661 -0.45940766 -0.008467016 -0.060340825 -0.25980294 0.35705963 0.106555894
0.25746515 -0.2275775 -0.802795 0.59667486 -0.37716696 -0.52854466 -0.25050965 -0.34667498
0.10712378 -0.267167 0.07337227 0.34921184 0.020200135 0.6705026 -0.39202592 0.2730242
0.23822187 0.17078286 0.5484202 0.27749774 -0.83551323 -0.068497255 -0.46795365 0.17586496
0.15022968 -0.022947466 0.8141691 0.089300014 0.6830617 -0.30443364 -0.17451036 -0.027211286

6 f4 [3]
00000000: efa5 b53d 4ca6 d5bc ebe3 cabd
0.0886954 -0.026080273 -0.09906753
