models/wine_classifier.pt (torch_old, 51409 bytes, 6 tensors)

weight f4 [100, 13]
00000000: 90a1 ae3c c422 8abe 202a 61bc 7e0b e1bd
00000010: 90d5 ca3c 93b1 24be 0c80 8abe 7841 7cbe
00000020: a0b7 1f3e e028 133e 0436 33be 1ce1 c73d
00000030: 7427 a83d 402a e4be 22e4 aa3e 0c66 093e
00000040: 7402 b5be b4bb 91bd db37 04bf 2e4d 3dbf
00000050: 7543 35bf a1d6 2fbf ef5a 443f 0093 9cbf
00000060: fb2a 5bbf 9743 08be 5619 443e dcf5 41be
00000070: 48b2 50be 5ca9 d4bd 7c10 8ebd 28d9 203e
00000080: 60d0 1bbc 50c2 b83c f759 8b3e a0b3 113d
00000090: 98cc 333e 38f1 3a3d f025 0bbe a8d3 f4bc
000000a0: 5032 483e 8603 103e ea99 363e c048 4dbe
000000b0: d616 6f3e ba9f 403e ba3f 8abe 4269 49be
000000c0: a0e3 c8bd b3f2 52be b0af 85be f42e eb3d
000000d0: a8cf a23d e4c9 2a3e 80c5 863d 80cd 56be
000000e0: 2871 ecbc 5a44 8abe d99c 8b3e f46a 0d3e
000000f0: 12a4 4bbe d01f b83c 1015 4cbe 5adb 6d3e
00000100: 887c ef3d de6f 353e 13e0 193e 573f 71be
00000110: 548a 5e3e 94af 67be 51e1 71be c3aa b93c
00000120: 0625 373e 304c 0bbd f47f 33bc c392 4f3d
00000130: 7ead 5d3e 53c6 e23d 9455 ae3d 92b5 b8bd
00000140: c815 e03d f824 1a3d 5ebb 623e ce0a 2c3e
00000150: da54 763e 6cf0 8abe e499 37bd b2fc 43be
00000160: 8c64 f13d 602d 473e fc07 533e 14bc 403e
00000170: 4008 50bc 1065 4a3d d484 adbd d8a1 433d
00000180: 4249 633e 84b1 e73d 0081 d3ba 7471 cc3d
00000190: b117 823e c5db 8c3e 1ce2 933d b44f 6abe
000001a0: 928a 1e3d 7f23 1bbe db81 4dbe 3746 873e
000001b0: 3a53 6f3e 2491 08bd 76d2 c9bd 8479 6d3d
000001c0: 2b4e 23be 3c53 753e a106 fcbb 90d8 0f3d
000001d0: 6edb 25be 601d 033c 8ea0 4dbe ae50 783e
000001e0: 101f e13c d034 a2bc 0081 863d 1a39 7abe
000001f0: 102a a03d 0055 5b3b 0e32 dcbd 6446 edbd
00000200: 7c96 16bd 6134 1bbe ec61 863d 00fc f83d
00000210: 7647 54be b672 1ebe 1e8f 84be b199 06be
00000220: a019 c93d 9100 873e cc4b d43d 5974 893e
00000230: aa4b 58be 766c 21be 9544 14be ef54 44be
00000240: 325e 0b3e c447 ac3d 3689 44bb 44fd c5bd
00000250: 038e 103c eda7 4d3e ea67 0d3e 25a8 67be
00000260: 0885 223e 0b66 59be 859f ed3d 3262 91bd
00000270: 227a 78be 0110 93be 89e0 b9be 5252 64be
00000280: 55f7 a9be bc47 c7bc 5aa2 293e 82b9 e5be
00000290: 5cd8 17be db47 293d 58c9 a9bd 77c5 98be
000002a0: 14cf 3d3b ed93 57be cc87 173e 6f72 af3d
000002b0: 4ef4 35be e6f6 40be e2f7 7f3e f32f 673e
000002c0: 08e0 7abe 30bd 833e 28e7 3cbe 403e 4dbd
000002d0: 4a74 51be 53b1 413e 60b3 efbc 383a f1bc
000002e0: 407e 093d 9625 643e 7c29 2b3e 4e8c 08be
000002f0: 006f d73b 324a 393e b3c5 77be 1093 fa3d
00000300: e4c1 d43d 13af 8a3e 60cc cc3d c4da 5abd
00000310: 8bb6 803e acd5 4c3e c2c2 84bd 5d15 89be
00000320: 446f 16be f81e f53d 5073 083d 4e79 4a3e
00000330: 6038 51be 00c6 14bd 3857 c1bd 7ab4 98bd
00000340: 40c7 493c 542d 453e 7fff 8abe a0d6 213d
00000350: 54fd 75be 63ce 82be c02d fe3c 6cc2 613e
00000360: f2b6 57be c425 3dbe a276 a0bd 7cc8 8a3d
00000370: 2883 37be e7f8 863e 51b9 37be 804e 57bb
00000380: 781c 5abe 204c 963c 48a4 fd3d 7c2c 78bd
00000390: 501a 433e 0a60 573e 3c8f df3d 16f3 47be
000003a0: ac75 e03d f441 883d c859 063e e258 4cbe
000003b0: 269e 483e 6374 88be 26d8 1cbe 8e5a 503e
000003c0: 7cc4 41bd 2079 75bd 9c4a 6bbd 987a 55bd
000003d0: 8002 633b 9aa4 1b3e 4c72 fcbd 4e60 edbd
000003e0: f646 5e3e 0e60 63be 1096 5fbd 8c56 d23d
000003f0: 8627 453e 581b 9bbd 7c48 613e 6877 19bd
0.021317273 -0.2697965 -0.013742954 -0.1098852 0.024760038 -0.16083364 -0.27050817 -0.2463435
0.15597391 0.14371061 -0.17501074 0.09759733 0.0821065 -0.44563484 0.33377177 0.13417834
-0.35353434 -0.0711588 -0.5164773 -0.7394589 -0.70806056 -0.6868687 0.76701254 -1.2232361
-0.8561246 -0.13307033 0.1915029 -0.18941444 -0.20380509 -0.10383865 -0.06936738 0.15707839
-0.00951013 0.022553593 0.27217075 0.035571694 0.17558515 0.0456402 -0.13588691 -0.029886082
0.19550443 0.14063844 0.17832151 -0.20047283 0.23348555 0.18810931 -0.27001745 -0.19669059
-0.09809041 -0.20600395 -0.261106 0.11483565 0.079497635 0.16678578 0.06580639 -0.2097683
-0.02886255 -0.27005273 0.27268103 0.1381033 -0.19886807 0.022476107 -0.1992991 0.23228207
0.11693674 0.17718455 0.15026884 -0.23559318 0.21732455 -0.22625571 -0.23621108 0.022664433
0.17885217 -0.034008205 -0.010955799 0.050677072 0.21648213 0.110729836 0.085124165 -0.09019007
0.109416544 0.037632912 0.22141787 0.16800997 0.24055806 -0.27136552 -0.044824496 -0.19139364
0.11786756 0.19450903 0.20608515 0.18821746 -0.012697279 0.049412787 -0.084726006 0.047761768
0.22195914 0.11313155 -0.0016136467 0.09982577 0.254087 0.2751142 0.07220861 -0.22881967
0.03870637 -0.1515026 -0.20069067 0.26420757 0.23371592 -0.033341542 -0.09854595 0.057977214
-0.15947787 0.23957533 -0.00769122 0.03511864 -0.16196987 0.008002609 -0.20080778 0.24249527
0.027480632 -0.019800574 0.065675735 -0.24435845 0.07820523 0.0033467412 -0.10751735 -0.115856916
-0.036764607 -0.151567 0.06561646 0.1215744 -0.20730385 -0.15473446 -0.2589044 -0.13144566
0.09819341 0.2636762 0.103660196 0.2684658 -0.21122614 -0.15764031 -0.14479287 -0.19173025
0.13610151 0.08412126 -0.002998901 -0.09667447 0.008822921 0.2008359 0.13809171 -0.22622736
0.1587106 -0.21230333 0.116026916 -0.070988074 -0.2426534 -0.28723148 -0.3630412 -0.22297028
-0.33196512 -0.024326198 0.16565838 -0.44868094 -0.14828628 0.041328292 -0.082903564 -0.29838154
0.002896254 -0.21052523 0.14797896 0.08566748 -0.17768976 -0.18844184 0.24996904 0.22576885
-0.24499524 0.25730276 -0.18447554 -0.050108194 -0.20454517 0.189153 -0.029260337 -0.029446706
0.033567667 0.22279963 0.16715044 -0.13334772 0.0065745115 0.1809471 -0.2419651 0.12235081
0.10388544 0.27086696 0.09999919 -0.053431287 0.2513927 0.20003384 -0.064824596 -0.2677411
-0.14690882 0.119687974 0.033313096 0.19772837 -0.20431662 -0.03632164 -0.09440464 -0.07456298
0.012315571 0.19255573 -0.27148053 0.039511323 -0.24022418 -0.25548086 0.031027675 0.22046822
-0.21065882 -0.18471438 -0.078351274 0.067765206 -0.17921126 0.26361772 -0.17941786 -0.0032853186
-0.21299922 0.018346846 0.1238485 -0.0605893 0.19053006 0.2103273 0.10915992 -0.19526324
0.10959944 0.066532046 0.13120186 -0.19955781 0.19591579 -0.26651296 -0.15316829 0.20347044
-0.047306523 -0.059929967 -0.0574442 -0.052118868 0.0034638941 0.1519951 -0.12326488 -0.11590634
0.21706757 -0.2220461 -0.05458647 0.10270414 0.19253358 -0.07573575 0.22000307 -0.03746739

bias f4 [100]
00000000: f0a7 90bd 76cd 99be f4e5 69be 9c7d d43d
00000010: 68da 0ebe d608 51be baaf 6b3e f045 a2bc
00000020: bee6 0e3e 9f12 0dbe 20d6 543d 4609 613c
00000030: 9ee6 8ebd 5874 4abe fd54 57be 7c53 003e
00000040: 4c51 f73d c821 9e3d 4c25 4d3e 4907 86be
00000050: 1d4f 70bf 30cb 493e e5bf 1ebf ec32 9ebe
00000060: 77e0 14bd 0ab4 35be 8c0c 06be af74 623f
00000070: 80f8 8e3c 2948 893e 6e32 2dbe b0c3 903d
00000080: 7065 983d f817 1dbd 92ea 703e de82 45be
00000090: d511 22be becd 763e 8cfc c0bd 00d0 9939
000000a0: be4f abbd d9b0 883e fcd4 073f f92d 8c3e
000000b0: 168d 52be 1093 4abd cb4a 18be 3426 cf3d
000000c0: c1cf 15be 87f2 15be 5a09 663e 0c48 113e
000000d0: 7847 5c3d a2ff 8abe 0007 b9ba 84e0 33be
000000e0: e0f0 07be eb43 d1be 4a9f 9cbe 0d2f 7cbe
000000f0: 43e7 843e ee21 4fbe 4015 fa3c 600e c5bd
00000100: 6135 1abe 0870 17be c630 5fbe 5056 a43d
00000110: 9b6d 7abe 496e 4c3e 80dc 8bbc 425f 64be
00000120: 4d58 6ebe dbe9 b3bd 3af5 723a 345a 49bd
00000130: 086f 5c3d 3876 09be 10ba 6f3d 1367 41be
00000140: d0a4 c6bc 400f d3bd e4e1 90be c608 983e
00000150: dc50 ad3d 5ab3 18be 32ce 84be 17fd b7bd
00000160: 9cc0 273e b768 b8bd d535 77be 6eba 1e3e
00000170: f84c bfbd bbc5 38be 385e fd3d c069 bf3c
00000180: 5804 3e3e 5c07 53bd 2e2c 703e c484 2fbd
-0.070632815 -0.30039567 -0.22841626 0.103755206 -0.13950503 -0.20413527 0.23016253 -0.01980874
0.13955209 -0.13776635 0.051962018 0.013735121 -0.069775805 -0.19770944 -0.21028514 0.12531847
0.12076053 0.07721287 0.20033759 -0.26177433 -0.9387072 0.19706416 -0.6201156 -0.30898225
-0.03634688 -0.1774446 -0.13090724 0.88459295 0.017452478 0.26812866 -0.16913769 0.070685744
0.07441223 -0.038352937 0.23526981 -0.19288203 -0.15827115 0.24101922 -0.094231695 0.00029337406
-0.08364819 0.26697424 0.53059363 0.27378824 -0.20561633 -0.049456656 -0.14872281 0.101147085
-0.14630033 -0.14643298 0.22464505 0.1418764 0.053779095 -0.27148157 -0.0014116466 -0.17566115
-0.1327548 -0.4087213 -0.30590278 -0.24627323 0.2595769 -0.20227787 0.03052771 -0.096218824
-0.15059425 -0.1478883 -0.2179595 0.08024275 -0.24455874 0.19963945 -0.017072916 -0.22301963
-0.23275872 -0.08784839 0.0009268109 -0.04915829 0.053816825 -0.13424003 0.058527052 -0.18886976
-0.02424851 -0.10305643 -0.2829734 0.29694194 0.08462688 -0.14912167 -0.25938565 -0.0898382
0.16382068 -0.09004348 -0.24141629 0.15500805 -0.093408525 -0.18044178 0.123714864 0.023365855
0.18556345 -0.05152069 0.23454353 -0.042851225

weight f4 [100, 100]
00000000: 94ef d0bd c410 cfbd d363 8d3d 7bf1 bfbd
00000010: da05 4abe 2696 23be 92b9 8abd fcb8 82bd
00000020: bbf9 753d 4706 1fbd 7d75 5abd 609c 0cbd
00000030: 8fea 8ebd bb27 a1bd 3893 2ebe 6b6a 923d
00000040: 700a 413c 8973 8fbd 0ca7 c7bc f9d2 94bd
00000050: 71ad 37be 5f3c e5bd 8a3c 84bd 546a 85bb
00000060: 9b67 3abd 90cd 2fbe 8d66 06be d114 e8be
00000070: 74a9 31be 427a 3bbe 2da0 293c 22ab a7bd
00000080: bb89 97bd 81c5 10be d202 45be d0f1 1abd
00000090: caa8 3e3d 96a7 193d 8194 d2bd 08e0 89bd
000000a0: 8081 2abe 7a98 73bd 7c13 0a3e 0085 41be
000000b0: 4a89 3ebe d4bf 92bc 687b b5bd d216 7e3d
000000c0: 39e4 59bd 3ed8 44bd 20da 58be 4682 1e3d
000000d0: 4497 19be 3911 e2bc 2c73 dabd 74c8 09be
000000e0: a4da c4bd 037d 9ebc 4651 8fbd a86f b13c
000000f0: a172 53bd 2857 b0bc c031 28bc 9d4d 44bd
00000100: 2dcb 11be 7944 c33d 4386 2abd a08c 52be
00000110: ac47 e43c b84c 9e3d d5ee 833d 8aa3 51be
00000120: 34bb 1cbe 2e32 41be 75c0 02bd d23d 5b3d
00000130: 807d 013c 0e9b 3f3d 0cf5 b73c 6c27 03be
00000140: 3015 25be ea2a 123d c2db 70be 6a9e 89bf
00000150: 04c1 b8bc c074 26bc 7aff 2b3d 1f0a b7bd
00000160: 9339 9d3d 364b 55be 4b3a dabd 0e7d 89bd
00000170: 16f8 26be 2cb1 febc 2057 0abd dce0 54be
00000180: 642a 1bbe 8662 4cbd 84c5 5abe 7b1e 91bd
00000190: bb23 623d 869a 8a3c 008d 4d3c 038c b0bc
000001a0: f5d5 0fbd 693e d2bc 00c8 ecba 51ae 993d
000001b0: 1a76 6b39 2923 ab3d 37fc c4bd c850 febb
000001c0: 7642 bb3e 7738 6dbb 9a21 b9bd fc15 cd3c
000001d0: 7091 33bd 1328 12bd ac3b 94bc 364e 21bc
000001e0: 6967 9e3f f54a b63b 0d00 d03e 76c9 8b3d
000001f0: fb9e e3bd 31a5 f73c 2786 543d f52b b03f
00000200: 7d91 263d 3161 4ebd 4bfe 153e 897b c53d
00000210: 1b97 383d e764 69bd 68ad d7bd c90f f73b
00000220: edfe a7bd a540 90bd 0939 51bd ac16 94bd
00000230: d9b5 32bd 2893 9ebd 22af a5bf bcce abbd
00000240: ec8f cabd 0b70 b83d d668 51bc 5178 3abc
00000250: 50fc 743c eee3 29bd 227c 8d3d 80d2 41bc
00000260: 6148 06bd 2847 17bc 1e50 873c 0f43 993d
00000270: 5662 aabd 042d 38bf ca8d 22bd 8926 a73d
00000280: 4bd0 0e3d 1942 9d3d 0739 20bd 46d0 133d
00000290: 747e babd 5d37 a13d d6bd 4ebc bace 80bd
000002a0: d5c0 99bd 2041 7ebc 494e 523c db4b 9f3c
000002b0: 14f1 bfbb e71e 5e3d 97bf cabe 9822 97bc
000002c0: e1d8 be3d bcb3 943d 6eb0 453d 9909 a3bc
000002d0: c0d7 80bd 0071 d8bb e612 5a3f 754b 823d
000002e0: d9a8 003d 6066 5fbb 6d08 803d df89 edbd
000002f0: cad5 3fbd d5b0 13bd 6c70 ecbd 5d23 1abd
00000300: 5431 83bd 009e eb3a 867d abbd 950c fcbd
00000310: 020d acbd 445b bfbd 9e3e 543c 922b 3d3d
00000320: 9e09 d83c 0622 bc3e 120f 703d 29da 8c3d
00000330: bbea 863c b2e4 e2bc b725 d23d 4272 083d
00000340: 79a5 c5bd 609b a5bd 4460 16bd 49a0 ebbb
00000350: 82c0 883e 250b d43d 2065 5abd 4623 483d
00000360: 6022 623b 90cc a13d 222f 793d b55e 893d
00000370: ffb8 553f 1c43 1d3c 0981 e43e 2a2c a5bd
00000380: fdd7 57bc dc0a 7d3d 3d2e c63d b646 a8bf
00000390: a4b0 37bd 964b 733d 7bd8 323d 4635 14bd
000003a0: edf9 a83c 142c 7ebd 12e9 33bb d0f8 863d
000003b0: 7dbe 89bd 4002 20bc 79c6 e7bc 2cec 2fbd
000003c0: ba1d ee3d cddb c1bd 305c 05bf 9199 d03d
000003d0: 42b4 213d 300e d23b 03fc cc3d e081 41bd
000003e0: 69ff e0bc d5f5 b43d 5aa8 213c f38f 923d
000003f0: 45f4 b13d 409e 703c 73df d43d 1f2e dfbb
-0.10201946 -0.1011062 0.069038056 -0.093722306 -0.19728795 -0.15975246 -0.06773676 -0.06382939
0.060052615 -0.038824346 -0.0533347 -0.03432882 -0.06978332 -0.07868906 -0.17048347 0.07149204
0.011782274 -0.070044585 -0.024371646 -0.07266802 -0.17937256 -0.111931555 -0.064568594 -0.004071513
-0.045508962 -0.1716826 -0.13125058 -0.45328382 -0.17349797 -0.18308356 0.01035313 -0.08186938
-0.07399317 -0.14137842 -0.19239357 -0.037828267 0.04654769 0.037513338 -0.10282231 -0.06732184
-0.16650963 -0.059471585 0.13483995 -0.18898392 -0.18607059 -0.017913736 -0.088614285 0.062033482
-0.053196166 -0.048057787 -0.21176958 0.038698457 -0.1499911 -0.027596103 -0.106664985 -0.13455373
-0.09612015 -0.01934672 -0.069979236 0.021659687 -0.05162299 -0.021525934 -0.010265768 -0.04792558
-0.14237662 0.095345445 -0.04163195 -0.20561457 0.027866207 0.07729477 0.06442038 -0.20472541
-0.15305787 -0.18866798 -0.031921823 0.053525753 0.007903457 0.04677873 0.022455715 -0.12808007
-0.16121364 0.035685457 -0.23521331 -1.0751469 -0.022552975 -0.010159671 0.04199169 -0.08937477
0.07676997 -0.20829472 -0.1065565 -0.067133054 -0.16305575 -0.031090342 -0.033774495 -0.20788902
-0.1515289 -0.049898647 -0.21364409 -0.07085892 0.055209856 0.016919386 0.012545824 -0.021551138
-0.035116155 -0.025664525 -0.0018064976 0.07503951 0.00022455343 0.08356316 -0.09618419 -0.0077610947
0.36574143 -0.0036196986 -0.09039612 0.025034897 -0.043839872 -0.03568275 -0.01809486 -0.009845307
1.2375308 0.005563135 0.4062504 0.06825535 -0.111143075 0.030230137 0.05188575 1.3763415
0.040666092 -0.050385658 0.14647786 0.09642703 0.04506598 -0.056980994 -0.105311215 0.0075397235
-0.0820292 -0.0704358 -0.051079784 -0.07230887 -0.043630455 -0.077429116 -1.2944071 -0.08389041
-0.09890732 0.090057455 -0.0127813425 -0.011381225 0.014952734 -0.041477136 0.06908442 -0.011829972
-0.03278387 -0.009233274 0.016517695 0.074834935 -0.08319537 -0.7194369 -0.039686 0.08161647
0.034866612 0.07678623 -0.039116886 0.036087297 -0.0910615 0.07871888 -0.012618503 -0.0628943
-0.07507483 -0.015518457 0.012836047 0.01944535 -0.005857596 0.05422869 -0.39599296 -0.018449113
0.0931871 0.07260844 0.04826396 -0.019902037 -0.06291151 -0.0066052675 0.85185087 0.063620485
0.031411026 -0.003408812 0.06251607 -0.115985624 -0.046834745 -0.036057312 -0.1154488 -0.03763138
-0.06405893 0.0017976165 -0.08373551 -0.12307087 -0.084009185 -0.093435794 0.012954382 0.04618413
0.026371773 0.36744708 0.058608122 0.06877548 0.01646935 -0.027696941 0.102611 0.03331209
-0.09650702 -0.08086276 -0.0367129 -0.0071907383 0.26709372 0.10353688 -0.053319097 0.048861764
0.0034505352 0.07900345 0.060835965 0.06707517 0.83485407 0.00959852 0.44629696 -0.08065064
-0.013174054 0.061777934 0.09676788 -1.3146579 -0.044846192 0.059398256 0.043663483 -0.036183618
0.020626986 -0.062053755 -0.0027452153 0.06590426 -0.06725786 -0.009766161 -0.028292881 -0.04294984
0.11626764 -0.09465752 -0.5209379 0.101855405 0.039478548 0.0064103827 0.10009005 -0.047243
-0.027465539 0.08835951 0.009866798 0.071563624 0.08689169 0.014686167 0.10394182 -0.006810918

bias f4 [100]
00000000: 5d34 2abe e2c7 d3bc 66a0 353b 9ea0 b2bc
00000010: 7162 4ebc 2af6 22bd 34e4 49bc c085 7f3c
00000020: ed18 733d 17f1 5bbc 74ec 34be 62ac 48bd
00000030: a979 e4bb dbad 2c3d e4de b6bd 4a36 14bd
00000040: 1887 91bd f8dd e9bd 0d16 c0bd ff1e 453d
00000050: e451 06bd 8409 c73b bf85 c3bd 7b8c 9d3d
00000060: 928e 783d f697 2a3d 9721 4d3d e879 a9bc
00000070: e1c8 0e3d 4691 a73c 588f b8bd 9d31 35bd
00000080: 1a88 afbd b14b f33b ce0c bd3c 813d bc3c
00000090: 7066 4fbd d1f5 2cbd 2d87 45bd 261b 6c3d
000000a0: 4b2c 023e 8f2f 26bd 572f 01bd 996b b73c
000000b0: e7af e53d 88f9 ee3c 99fc 833d 37da 97bb
000000c0: 7d7a ca3d f822 b33d e9cf 1c3d 23e5 303d
000000d0: 2683 eebc 6ef4 edba 34f5 ac3c 92d2 96bd
000000e0: 9d78 4dbd c446 bcbd 7ef0 bcbd 0f5a e13d
000000f0: 2aab e03d 3292 5abd ff6a 45bb 5547 05bd
00000100: e382 603b 0689 f83c 558e e93c a7eb 413d
00000110: 10a5 083d 605f 013d c9c5 0ebe 8d24 053d
00000120: ff9b 013e 25eb 4f3b 87b3 c9bd e873 d9bd
00000130: e73b 353c c402 14bd 7886 86bd 2444 d8bd
00000140: 589e 63bd 90f2 85bd 47b8 94bd 5bb0 303d
00000150: ba4e 48bd 8395 063d e042 863b 9794 acbd
00000160: a610 babd cad1 d2bd 04d0 ed3d f3a9 a83d
00000170: cb19 6abb 0ec6 9cbd 624e 9c3d da47 683d
00000180: 29d6 f83d 309b fd3d f36b 023d c7cc 1fbd
-0.16621538 -0.025852147 0.0027714013 -0.021805104 -0.012596712 -0.03978554 -0.012322474 0.015595853
0.059349943 -0.0134241795 -0.17668325 -0.048992522 -0.006972511 0.04215799 -0.08929232 -0.036184587
-0.07105845 -0.1141929 -0.09379206 0.048125263 -0.03279294 0.0060741324 -0.095469944 0.0769281
0.06068284 0.041648827 0.050080862 -0.020688012 0.03485954 0.020455014 -0.09011716 -0.044236768
-0.08570881 0.0074247946 0.023077395 0.022978546 -0.0506348 -0.042226616 -0.048224617 0.05764308
0.12712209 -0.0405727 -0.031539287 0.022390174 0.11215191 0.02917172 0.064446636 -0.0046341675
0.09886644 0.08746904 0.038284216 0.04318727 -0.02911527 -0.0018154511 0.021113016 -0.07364382
-0.050163854 -0.09193185 -0.09225558 0.110035054 0.10970147 -0.05336208 -0.003012359 -0.03253873
0.0034257702 0.030338775 0.028510252 0.047343876 0.03336054 0.031585097 -0.13942637 0.03250556
0.12657164 0.003172585 -0.09848695 -0.106178105 0.011061645 -0.03613545 -0.06568617 -0.10559872
-0.05557093 -0.06540406 -0.072617106 0.043136936 -0.048903205 0.03285743 0.0040973276 -0.08426779
-0.09085207 -0.1029392 0.116119415 0.0823554 -0.003572094 -0.076549634 0.07632138 0.056709148
0.12150223 0.12383115 0.03184123 -0.03901365

weight f4 [3, 100]
00000000: 2b7d 07bd 2e67 1f3f 694b 203e f0db 8a3e
00000010: 4e47 a0be 134e b53d 4632 e63e 3eaf 54bf
00000020: c1c2 f5be 5410 6dbf 5913 773a 515c 2c3e
00000030: 3566 6a3e 9d88 fb3e ab22 273d 2f6f 1fbf
00000040: c56a 9ebd 9def b33e f773 f63e 8b64 103f
00000050: 9dbf a03e a211 e4be 865c 1f3f fc36 713e
00000060: 15d6 08bf 7334 1f3e df55 8fbe f182 f7bd
00000070: d72a 1abf 04cc d6ba 32f4 173e 9e57 bc3d
00000080: 13bf c23d d706 a3be 9604 d9be 31eb f53d
00000090: 8c20 243f 10a8 f13e 1923 763e a3b6 38be
000000a0: 84ca 54bf b44e 053f f459 873e 9812 b9bd
000000b0: 44b4 dc3b a335 f6be 83d2 573d d7aa 25bf
000000c0: dddd 7f3e 054c c9be 6a83 c7be 9ee8 d73e
000000d0: 9123 01bf cc5b 32bf 8cfc 41be 0e87 f2be
000000e0: 7ca3 31bf cd82 833d ae97 9fbe 25d6 37bf
000000f0: 58ab cebe f7c7 d03e 0a5a f13d 5c3b d33e
00000100: e43b f83e 542a 4fbe ddd6 84bd 66a0 633b
00000110: a8d3 f83e 38c3 33bf 4e7b 0b3f f173 b9be
00000120: 66d2 40bf c690 433e 3ea5 4ebe b08e a93d
00000130: ac17 253f 96e6 483e 8480 4a3d bd23 633e
00000140: 63b4 00bf 56e4 14bd db05 aabe cdfc 93be
00000150: ad46 68be 5cd6 af3e b8c4 923e 848f 0d3f
00000160: bc5e 1f3f 529d fb3e f83c de3d c6c8 a1be
00000170: 46d7 ff3d 9dfd 043f 59b7 b73e 444a b83e
00000180: 367b 06bf 6dc4 ba3c 3c49 1fbd 5645 553d
00000190: 1a95 abbc 5dc0 7ebe c5ba 8cbe e6a0 8abe
000001a0: 1197 633e f6e9 8a3e 64fe 8dbe 6f13 0b3e
000001b0: 7ef3 35bd 5faf 11be 24f7 083d b256 b0be
000001c0: 3123 e5be 34c2 593e 92f3 0d3d 1724 833e
000001d0: 4f6f 893e 6330 81bc d11d d2bd b835 08be
000001e0: 8c0f 80be e25d 583e a572 4abe f5a8 c9be
000001f0: 30af 853e 862d a3be fd57 583e c9cb 703e
00000200: c878 3c3e 3550 933e 821d cb3e 7ad3 b5be
00000210: 1b19 69bd ab21 8f3e 816e 0e3e 11e1 9d3e
00000220: 223e 1fbe f944 733e 8888 543e dcd5 843e
00000230: e868 7cbe e582 2d3e 0b4d e0be 0874 5c3e
00000240: fa3c c2be 5313 2fbe 9abc 9ebe 5ebe 7bbe
00000250: b7d5 b2be 1114 dc3e 856a 2d3e 3b7e 7bbe
00000260: 2c6b 523e b490 773e cf3f b73e d3d3 2f3e
00000270: 772c 713d 4f7a 763d 8cc5 643e f6bb ad3d
00000280: 66ff 64be b939 b4be 730d 9bbe 168c 27be
00000290: 9e01 8bbe aaa0 2ebe fb6c c33e 2223 903e
000002a0: e1e7 ca3d 154e cc3c 3759 223d 0809 d8be
000002b0: 7328 053e 8598 86be 3e49 703e c3c5 c33e
000002c0: 48ed 00be 2186 93be 2ec4 a33e f9ad a53d
000002d0: 44d4 283e df47 a53e f612 4a3e 05e6 373e
000002e0: 9bee 9f3e cfee 803e 9bfa eabe 4dc7 87bd
000002f0: d898 90bd b237 36bd 1e6a 95be c1e1 bcbe
00000300: 8d62 5dbe db05 55bd b96d 94be b99d 8cbe
00000310: a54a 393e a340 a5be d8e9 363e 84d8 163d
00000320: 6995 d9bb 124b 98be c241 8f3e 0dee 743d
00000330: 6536 84bd 7809 ecbe a8f6 aabd 5deb 903e
00000340: 2ffa 823e 4e99 4e3f 7da9 553c ab6b 8b3e
00000350: d52e c73e d40a 18bf d4cb 713d f49e 5e3e
00000360: 2a1e ccbe 5b08 bcbe f025 d6be aacd 8dbe
00000370: d895 f13d 5dab 4d3e 61bb 9ebe a866 933e
00000380: 9d81 753e 6981 2c3e 692a cd3d 8d12 59be
00000390: 7d52 6e3e dcd6 c9be ec32 16bf b173 ca3e
000003a0: f39f ecbd 1470 fabc 3c0a 063e 934a e8be
000003b0: 18b6 f2be 7278 07bf 2c31 ccbe 5729 98be
000003c0: 671a 4b3f 147e 3ebf 0adb bf3e 6e71 5fbe
000003d0: 7e62 1b3f 4a99 df3e b9b2 b93e d4b0 243f
000003e0: 0ba0 493e 2a0b 02be 735f 163e 3f4d 14be
000003f0: 1fa3 e83d 823c 8c3e d3d0 8dbe 1596 e53d
-0.033078354 0.62266815 0.15653767 0.27120924 -0.313044 0.08852782 0.4496023 -0.830799
-0.48000148 -0.9260304 0.0009425185 0.16832091 0.22890551 0.49127665 0.040804546 -0.6227903
-0.077352084 0.35143748 0.4813535 0.56403416 0.3139619 -0.44544703 0.62250555 0.23556131
-0.53451663 0.15547352 -0.27995202 -0.12085522 -0.6022162 -0.0016387706 0.14839247 0.09196399
0.09509101 -0.31841156 -0.4238631 0.1200775 0.6411216 0.47198534 0.24036826 -0.1803842
-0.83121514 0.52073216 0.26435816 -0.090367496 0.0067353565 -0.48087797 0.052690994 -0.64713806
0.24986978 -0.3931581 -0.38967448 0.4216966 -0.50444895 -0.6967132 -0.18943995 -0.47368664
-0.6939008 0.06421433 -0.3117041 -0.71811134 -0.403651 0.4077756 0.11784752 0.41256225
0.48483193 -0.2023099 -0.064862944 0.0034733056 0.4859898 -0.70219755 0.54485023 -0.3622127
-0.7532104 0.19098195 -0.20180222 0.082791686 0.64489245 0.19619212 0.04943897 0.22181602
-0.5027525 -0.03635057 -0.33207592 -0.2890381 -0.2268321 0.3434323 0.2866571 0.5529711
0.6225393 0.49143463 0.108514726 -0.3159849 0.12492232 0.51949483 0.3588207 0.3599416
-0.52531755 0.022798741 -0.0388882 0.052068077 -0.02094512 -0.24878068 -0.27486244 -0.2707588
0.22225596 0.27131623 -0.27733147 0.13581632 -0.044421665 -0.14227055 0.033438817 -0.34441143
-0.4475341 0.21265489 0.034656115 0.25613472 0.26842734 -0.015770143 -0.10259593 -0.13301742
-0.2501186 0.21129563 -0.19770296 -0.39386716 0.2611022 -0.3187067 0.21127315 0.23515238
0.1840545 0.2877213 0.3967095 -0.35512906 -0.056908708 0.27955374 0.13909341 0.30835775
-0.15551046 0.2375678 0.20755208 0.25944412 -0.24649394 0.16944464 -0.4380878 0.21528637
-0.37937146 -0.17097215 -0.31003267 -0.24584338 -0.34928676 0.4298406 0.16935165 -0.24559872
0.20548695 0.24176294 0.3579087 0.17170648 0.058880296 0.060175236 0.22340983 0.08483116
-0.22363052 -0.3520029 -0.30283698 -0.16362032 -0.2714967 -0.17053476 0.38169083 0.28151804
0.09907509 0.024939576 0.039635863 -0.4219439 0.13003711 -0.26288238 0.2346544 0.38236818
-0.12590516 -0.2881327 0.3198561 0.08089823 0.16487223 0.32281396 0.19733796 0.17958839
0.3123673 0.25182196 -0.45894322 -0.066298105 -0.07060403 -0.04448671 -0.29182523 -0.36890987
-0.21619625 -0.052007537 -0.28989962 -0.27464083 0.18094881 -0.32275876 0.17862642 0.03682758
-0.0066401255 -0.29744774 0.27979857 0.059797335 -0.064556874 -0.46100974 -0.08347827 0.28304568
0.255815 0.80702674 0.013040897 0.27230582 0.38902918 -0.5939152 0.059032276 0.21740323
-0.39866763 -0.36725125 -0.4182582 -0.27695972 0.117961586 0.20084901 -0.31002334 0.28789258
0.23975225 0.16846241 0.10017855 -0.21198483 0.23273654 -0.39421737 -0.5867145 0.3954139
-0.115539454 -0.030571021 0.13089842 -0.45369396 -0.47404552 -0.5291816 -0.39881265 -0.2971904
0.7933716 -0.7441113 0.374718 -0.21820614 0.6069716 0.43671638 0.36269167 0.6433232
0.19689958 -0.12699571 0.14684848 -0.14482592 0.11359238 0.27389914 -0.27698383 0.112102665

bias f4 [3]
00000000: 3289 45bd df77 7d3d 4540 eb3b
-0.048226543 0.061881896 0.0071792924
